SPACE/pretrained_weights/salicon_space-cbgflen_sal.pth (torch, 134083 bytes, 49 tensors)

L1.weight f4 [16, 1, 3, 3]
00000000: b0d9 b93e 0764 22bd c2d0 7bbc 2abe 1a3e
00000010: eb1d a5bd 2042 d1bd 8af1 e0be 22d3 033f
00000020: db75 923d 4f36 913e 0ba5 d13e a67c bf3d
00000030: 53a0 09be fa9e c2bd e09b 85be 0afb e2be
00000040: ca1d 3c3d 286b 84be e6da af3d 3b96 6fbb
00000050: 1dd6 493f 2ffb b1be fe6a 6d3d 67c8 9c3d
00000060: a748 85be 034d e2bd 89dd 7cbd 625d e1bd
00000070: 956a c13e 6049 9fbe 4106 b5bd d4bc c63e
00000080: 20a1 a1be d224 5bbe fa87 843e f54b 33be
00000090: f6b1 0bbf e8dd 4abe 0156 77bb e6e7 84be
000000a0: d5fa 89bd e561 febd 8079 833e 1085 a23e
000000b0: f6a7 8b3e 3b54 4b3e decf 1abe 6bd2 56be
000000c0: e5d9 e83e 3111 11be e389 6dbe 2c98 d33e
000000d0: 0fd4 933d 783a 79be b9a5 04bf c868 28be
000000e0: ca36 b1bd 67a9 32bd aff8 a33e 63a0 c43e
000000f0: 2a05 00be 480e 763c d532 f33d 10d5 30c0
00000100: 91dc cdbb 8ec8 a23d b800 44bf 38d5 f5bc
00000110: 34e1 b33c da4a 0f3f e27b cd3d b222 583c
00000120: cb35 b73d ecde f8be 35b3 1ebe 326f c83e
00000130: bc90 bd3e 10ad 1bbe 74f3 eebd f7bc 38bd
00000140: 5892 93bd 003f 59be 21ba 9bbd c99e 8bbe
00000150: c08d a1bd 5350 a93e 96aa 013f bffd 8d3e
00000160: 47a9 373e 637e 443e 1cca ffbf b1e6 9cbd
00000170: a9ea 333d 073b 6bbf 555e 29bd 1f89 30bd
00000180: 702e 213d b270 5b3e b78c e43d 568a bbbe
00000190: a677 ccbe 6b25 f3be 38b9 24be 3edd 05be
000001a0: 583f aabe 6433 5ebd d3e5 873d b9f2 bebd
000001b0: 46f2 9c3e a5cd b23e df8d 803d c879 493e
000001c0: 2e50 d7bd 44f5 30bd 30de fdba fda6 eabe
000001d0: b207 c3be 11a3 68bf f0a8 95bc c437 b33d
000001e0: 9dbf c9bf d604 6abd e9d4 d43d 8706 91bf
000001f0: d90f 3dbd 0de4 23bd 8828 fbbf 13d0 f8bd
00000200: 02a8 b53c 8e19 aebf 4d0b adbd 2612 66bd
00000210: bd82 28bf 718c a03d 232e e33d 162b 3b3e
00000220: 4217 e2be cc19 893e e4ac 613e 9015 d6be
00000230: c9bf f63d e5e4 873e 0a1e 38be a938 d13c
0.36298895 -0.039646175 -0.015369596 0.15111604 -0.08062347 -0.102176905 -0.4393428 0.5149404
0.071513854 0.28361747 0.4094623 0.09349947 -0.13440065 -0.095029786 -0.26095486 -0.44332153
0.045926847 -0.25863004 0.085866734 -0.003655805 0.78842336 -0.3476195 0.057963364 0.07655411
-0.26031992 -0.11049845 -0.06173471 -0.110041395 0.37776628 -0.31110668 -0.088390835 0.3881594
-0.3156824 -0.21400765 0.25884992 -0.17509444 -0.5456842 -0.19811213 -0.0037740471 -0.25958174
-0.067372955 -0.12421016 0.25678635 0.31742144 0.27276582 0.1985635 -0.15118358 -0.20978706
0.4547874 -0.14166714 -0.23197131 0.41327035 0.07218181 -0.2433871 -0.5181537 -0.16446221
-0.08653028 -0.043618586 0.32025668 0.38403615 -0.1250197 0.015018053 0.1187493 -2.7630043
-0.006282397 0.07948409 -0.76563597 -0.030008897 0.021957971 0.5597359 0.100333944 0.013191866
0.08945807 -0.48607576 -0.1549805 0.39147335 0.37024486 -0.15202737 -0.11667529 -0.045102086
-0.07205647 -0.21215439 -0.07603861 -0.2726958 -0.07888365 0.33069095 0.5065092 0.27732655
0.17935668 0.19188838 -1.9983554 -0.076611884 0.04392496 -0.91886944 -0.041349728 -0.04309952
0.039350927 0.21429709 0.11159652 -0.3662898 -0.39935035 -0.47489485 -0.1608628 -0.13072678
-0.33251452 -0.05424823 0.06635632 -0.093236394 0.3065359 0.3492252 0.0627706 0.19675362
-0.1051334 -0.043202654 -0.0019368585 -0.45830527 -0.3809181 -0.9087382 -0.018269032 0.08750871
-1.5761601 -0.05713352 0.10392172 -1.1330117 -0.04615769 -0.040012408 -1.9621744 -0.12149062
0.022174839 -1.3601549 -0.08449421 -0.05616965 -0.6582449 0.07839287 0.11092784 0.18278155
-0.4415837 0.26777494 0.22038609 -0.41813326 0.12048299 0.2654182 -0.17980209 0.025539713

L1.bias f4 [16]
00000000: b030 a53c 3c3e c0bd 6c89 0b3e 3ed9 d0be
00000010: 239f d23d dc95 b8bd 70d8 61be 5b3f 8fbe
00000020: f85d 143e 6d2c 82be 94e4 623d 696d 243e
00000030: 031a cb3e cd52 0b3e 3de3 33bc 453d 5abe
0.020164818 -0.0938687 0.13626641 -0.40790743 0.10284259 -0.090129584 -0.2205522 -0.27978024
0.14488971 -0.2542452 0.05539377 0.16057362 0.39668283 0.13605805 -0.010979471 -0.21312435

L2.project.weight f4 [24, 16, 1, 1]
00000000: caf4 10be 148e 963e cb57 9ebd 7f26 45bd
00000010: 3225 d93d b362 3c3d 2b28 ef3d aef0 f63e
00000020: 8415 c73e 5f6a 603e 30d7 d93e c30f 483f
00000030: 3a3e 50bd 365d 013f 52d0 c63e eab4 7cbc
00000040: 06db 31bf 0888 dbbd a4c1 37be a2c4 b0be
00000050: 75b3 093e 6b15 99be e507 a0be f864 d1bb
00000060: c2b1 9fbd f96f 3fbf 1800 92bd 82fe 873e
00000070: 8ebf ecbd f56f df3d 8801 8c3d b287 b33e
00000080: f174 393f 7967 a33c 1e8b 573c 558d 103e
00000090: ee5f 93bb bba6 1abf 7f8b 993b 32b3 90be
000000a0: 5dda 703c 8831 c53e b8ce 5bbe 9780 cfbc
000000b0: 3910 bbbc d3e8 d3bd 0634 31be 3296 853d
000000c0: 949f 873e 3952 ff3c a618 4ebf 0859 873c
000000d0: b3b5 e3be fdd3 7e3e 1295 f1be 9929 f8bd
000000e0: a23b 6ebd 0c93 9cbd f675 73bd 4de0 393e
000000f0: 7fd0 763e 8bea 103e a360 27bd 8717 f53d
00000100: b83d bcbd 50e8 08be 8f8a 843e 5ef0 13bf
00000110: ee16 f9bd 12dd 41bf 5fcb 84bd 94e2 7d3d
00000120: e669 1fbf ee5a 1c3e b694 bc3d f81a e33d
00000130: 4b5e 84be a3d6 713c 255b b93d c93b 0b3d
00000140: b801 4abe 9473 10be dce1 39be bc03 bbbe
00000150: e11e 31bf 2053 94be bb1b 9ebe 2bcc e7be
00000160: f013 b6be a2aa 9cbd f7d0 9fbe 3913 0bbe
00000170: 1264 ddbd d8bf db3c 1dd5 a7be a125 01be
00000180: 69df 553d 4a8d a3be 3b46 3dbf cae0 403d
00000190: 6412 0cbe f984 5c3e 7112 9dbe 099f 43be
000001a0: 69f4 963e 6907 073d 65d4 8bbd f134 1d3e
000001b0: bbb1 cbbe 33e2 7b3e fc8d 47bd 1040 a2bd
000001c0: da95 fabd 8cce 0fbd 0e72 2a3e 0176 863e
000001d0: 9c01 e53d 29fd dcbe 4bc6 473f c5ea 0d3e
000001e0: 3c6b 8f3e 0364 913e 6b63 b93c 040f 773d
000001f0: d69a 61be efd2 0c3e 9e3d a73c d6f5 ecbd
00000200: 7224 30be cf4d 9abe 3ad3 b83c a768 ebbe
00000210: 7b5c 6abe 2869 f0be 62a1 28bd b365 8b3e
00000220: 36c6 99be 02d3 fd3d 2e44 143e a4c7 123e
00000230: 0ca6 e2be 0c1f 333e 1652 1d3e 8143 69be
00000240: 227f a6bd 936f b7bd b73a 05bd 6264 a3be
00000250: 69d2 9d3e 178c 3ebf a639 fe3d 5a1b 913d
00000260: a96b 62be 856a 363e a2e6 513e f681 b33d
00000270: 9e76 edbe d5c1 e43d e25f 383e 4080 80be
00000280: 82c5 62bf a787 bbbd b34d 3dbe 09fc 10be
00000290: 891b bbbd 72a6 eabe 9707 113e 8beb 09be
000002a0: e1da 34be 4f25 29bf 2ffa b3bd 9d75 a7bb
000002b0: 1635 843c 39e5 e7bd 397e 03be d0fd 0dbe
000002c0: 8ed2 adbe adb5 13bf 5948 84be 0ffa cdbd
000002d0: d886 86bd 50b9 ac3c 677b 4b3e ac59 f23d
000002e0: c3cd 7b3e e454 4fbe 1e23 eb3d f081 ba3d
000002f0: 9428 30bf fa9b f33d 00c4 23bb 1f81 01bc
00000300: b897 e23d 1f16 45be 58f1 f7be ec4f 253d
00000310: 8088 80be 8cbd ac3e 6ad1 e23c 602b 15be
00000320: 7789 8e3e 3614 00bd c18d 90be 0220 b63d
00000330: e6b7 ee3e 85d3 68bd bfbb 83be 4da4 723e
00000340: e574 603e 65fb d4be 42a4 c03e 692c b83d
00000350: 0b8b 853e 5a71 6a3d 6608 033e d03f 003e
00000360: a2b8 703e 15fa 293f 8115 243e b7bf 993b
00000370: e4fb 99be cd6a 69be 6fa4 3dbc 275f ad3d
00000380: 2998 12bf 9d59 dbbd ba80 2bbf b9a3 f8bd
00000390: 0077 3a3e 89e6 bd3e c981 7fbe 33f7 0fbd
000003a0: bb3f 4c3e cb1e 27bf b29b ce3d 1c7a 033e
000003b0: 2442 4bbe 7172 13bd e2ac 663c f0b5 293e
000003c0: 90bf ddbd 84f1 d33c 8d07 e5be cde5 893d
000003d0: 2fca e1bd 8981 473f 3971 95be 5aeb 91bd
000003e0: f637 f83d 4f27 8a3d fe1d efbd 1de8 9dbc
000003f0: b3d1 d33e 7414 cfbd 6c97 2dbe 6a04 f23d
-0.1415588 0.29405272 -0.07731589 -0.048132416 0.106027976 0.045992564 0.11677583 0.482305
0.38883603 0.21915577 0.42546988 0.7814905 -0.050840594 0.50532854 0.3883081 -0.015423993
-0.6947483 -0.10719305 -0.17944962 -0.3452502 0.13447364 -0.29899153 -0.31256023 -0.0063902102
-0.077975765 -0.7478023 -0.07128924 0.26561362 -0.11559974 0.10910026 0.068362296 0.35064465
0.72444063 0.0199468 0.013155727 0.14116414 -0.0044975197 -0.6041066 0.0046858187 -0.28261715
0.014700499 0.38514352 -0.21465576 -0.025329871 -0.022834884 -0.10347142 -0.17305002 0.06522788
0.26488936 0.031167137 -0.8050636 0.016521946 -0.44474563 0.24885555 -0.47184044 -0.12117309
-0.05816234 -0.076452345 -0.05943867 0.1815197 0.24102972 0.14151971 -0.040863644 0.11967378
-0.091914594 -0.1336987 0.25886962 -0.57788646 -0.121625766 -0.7572795 -0.064841025 0.06198366
-0.62270963 0.15269062 0.09208052 0.11089128 -0.2585319 0.014760646 0.090505876 0.033992562
-0.19727218 -0.1410659 -0.18152565 -0.36526287 -0.6918774 -0.2896967 -0.30880532 -0.45272955
-0.35562086 -0.07649733 -0.31214115 -0.13581552 -0.108101025 0.026824877 -0.3277978 -0.1261201
0.052215014 -0.31943733 -0.7393529 0.047089376 -0.1367889 0.215351 -0.30678132 -0.19103636
0.29483345 0.03296605 -0.068276204 0.15352227 -0.39784035 0.24598007 -0.04871939 -0.07922375
-0.12235613 -0.035109088 0.16645071 0.26261905 0.111819476 -0.43161896 0.78036946 0.13859089
0.280115 0.28396615 0.022630414 0.060317054 -0.22031721 0.1375234 0.020415124 -0.11570327
-0.17201403 -0.30137488 0.022561658 -0.4597828 -0.22886841 -0.46955228 -0.04116953 0.27226028
-0.30034035 0.12393762 0.14479133 0.1433397 -0.4426731 0.17492312 0.15363345 -0.22779657
-0.081297174 -0.08956828 -0.032526698 -0.31912524 0.30824593 -0.7443251 0.12413339 0.07085295
-0.22111382 0.17814071 0.20498136 0.087650225 -0.4637956 0.11169783 0.18005326 -0.25097847
-0.88582623 -0.09156733 -0.18486671 -0.14158644 -0.09136111 -0.45830113 0.14163052 -0.13468759
-0.1766162 -0.66072553 -0.08787953 -0.005110456 0.016138595 -0.113230176 -0.12841119 -0.13866353
-0.33949703 -0.5769909 -0.25836447 -0.100574605 -0.06568688 0.021084458 0.19871293 0.1183351
0.2459021 -0.20247227 0.114813074 0.09106815 -0.6881192 0.118949845 -0.0024988651 -0.00790432
0.11064094 -0.1924672 -0.48426318 0.040359423 -0.2510414 0.33738363 0.027687747 -0.14567327
0.27839252 -0.031269275 -0.2823315 0.08892824 0.46624678 -0.056842346 -0.25729176 0.23695488
0.21919592 -0.4159805 0.3762532 0.089928456 0.26082644 0.057237007 0.12796172 0.12524343
0.23507932 0.6639722 0.16023828 0.0046920436 -0.3007499 -0.22794648 -0.011574849 0.084654145
-0.5726343 -0.10710452 -0.66993296 -0.121406026 0.18209457 0.37089947 -0.24951853 -0.035147857
0.19946186 -0.6528136 0.1008829 0.1283955 -0.1984945 -0.03599781 0.014079304 0.1657331
-0.10827553 0.025872 -0.44732323 0.06733284 -0.110248916 0.7793203 -0.29187945 -0.07124968
0.12120049 0.06745779 -0.116756424 -0.01927572 0.41370925 -0.10111323 -0.16952294 0.11817248

L2.project.bias f4 [24]
00000000: a4b1 483d 9518 063d d2d4 033d 8ecb 133e
00000010: bcc9 1b3e 0c3d 56bc f6ad 853e 5b92 f2bc
00000020: cb2c 0fbd c291 5b3d e84c 83bd f31d dc3c
00000030: 5779 59bd 10b0 093e 8c3c c5bd a102 c23d
00000040: 983e a43c 4b4d 893d 04e8 31be d206 b53c
00000050: d08b 243d 9395 c8bd 7291 babd bf29 b63c
0.048997536 0.032738287 0.032185383 0.14433119 0.15213674 -0.013076078 0.26109284 -0.029610803
-0.034954827 0.053605802 -0.06411153 0.02686975 -0.053094234 0.13446069 -0.09630689 0.09473158
0.020049378 0.067041956 -0.17373663 0.022097979 0.040172398 -0.09794154 -0.09109773 0.022236703

L2.conv.weight f4 [24, 1, 3, 3]
00000000: f239 bbbe 3237 473d b75e 493d 94c2 a9be
00000010: 5a81 afbc ce3e 8b3e 352e b3be fb13 1a3e
00000020: 1c53 a73e 55bf d53a c66b 76bc 40e4 62bd
00000030: ca13 8f3e af57 ce3d 60e2 8bbe 5795 633e
00000040: 15b0 dc3d df1a bdbe 6958 6fbe c9dd 34be
00000050: eca9 063d c9aa 8cbc 5c6f 12bf 2dc0 48bc
00000060: 92d5 00be 673b 95bd 7d9b a63c e1d1 cbbe
00000070: 1d3b 1e3f 1f47 d8be 71be cc3c 5f84 6f3b
00000080: 85ee c2bd 07e3 8c3d e797 e0bd 829b 593e
00000090: b9d9 c4be de05 c33e 6ced 6e3c ae0d c0be
000000a0: d332 28be 0b1f ca3d e096 96be 4e3a 9bbe
000000b0: 85a2 f1bc 4068 553e 39a5 a1bb ac23 8c3d
000000c0: 7e36 733d 0a4e 74be c447 8cbe 7c13 3fbe
000000d0: 8066 0bbf 2f10 61be 8b2c 3a3e 180b 26bf
000000e0: a507 0dbe b12a f33e 50e0 9abd e9ae 94be
000000f0: d218 903e 3deb 883e 2734 7f3c 577a 483e
00000100: e92d 23be c2d1 373e 28ce 31be 5a3d b53e
00000110: ed64 b9be 9bbc 823e 89ae e1bd dd19 0cbe
00000120: cae4 d0bd fa00 913e fa5a 9f3e 39d5 25be
00000130: 0755 b43e f501 0aba 9cb2 6bbe f608 7e3e
00000140: b181 aebe 0f25 bd3e 84fa ad3c 65bf 62bd
00000150: 97fe 3cbd ed8d 803d 4d52 7dbe 11a3 32bd
00000160: 320f d1bd dc84 63be 1ecc fa3e ca29 57be
00000170: 9642 f03c ea2a 933e dae9 63be cbbf 3bbe
00000180: 9483 cc3e babc 863d 7638 b6be 9d72 27be
00000190: 5802 2abe 1b64 ffbe af6c a33e 315e d4bd
000001a0: 8591 033d c018 f2bd c264 453e bb0c a03e
000001b0: 51a0 d53e 7a66 d9be 22d6 8a3e 6815 883d
000001c0: b376 343e 8259 973d 906c 833d 6f5e 453e
000001d0: 07fd b4bd 661c a5be 6606 0abe 8b8d 30bb
000001e0: 752f 2abe 2486 91be 2103 2d3e 6d71 0c3e
000001f0: 499d a13e d8d9 1d3f 8b4a f6bd a122 e8bd
00000200: 58d3 143e ccfc d4bc bc5d 70be 2181 7f3e
00000210: 1a2e 04bd 5ccf 3dbe 6a10 89be 6f8a 37bc
00000220: 22d1 adbe 0490 473e 6792 9abd 067f 773e
00000230: 663a 51be e43b ddbe 6280 d53e 0440 53be
00000240: f125 b13d c75e 21be 6a48 0a3f ddd3 ccbd
00000250: af20 763d 7eee 923e 061a d8be 7362 acbe
00000260: 45cf 60bd bdce dbbd 4038 8cbd 6f24 dfbe
00000270: b147 cb3e a4d3 b43e f530 803d 2bf7 c73d
00000280: 5230 7fbe b470 353e 71d4 08be c550 ff3e
00000290: 8fd2 a9be 4a08 83bd 294e e13e 3b66 f4bd
000002a0: 7406 acbe 9644 f43e 6c6f bebe b241 fb3d
000002b0: 2a58 0abe 8c71 bcbe d6f6 f13e 3e53 0b3e
000002c0: f80f 7fbe fa20 ba3e 9615 e03c ae0a 74be
000002d0: 6f68 2b3e 826e 85bd 3af4 473d a827 2dbe
000002e0: 396d 01bf 6d7a 4abe c5c4 803e b453 dc3e
000002f0: 584a 76bd 084c b83d 92fd 12be b26d 21be
00000300: b9ac cd3e af5c 88be 364c c0be 0027 533d
00000310: 2e4b 713e d44c 07be 7e59 c3bd 775b 33be
00000320: 81dc 01be 95c6 7cbe 78ba dcbd 341c f3bd
00000330: 86b3 eebe 8bec f7bd 1977 dfbe a85f f43e
00000340: 151e 4cbd 73dc bc3e 039e d8be ab18 44be
00000350: 3515 a1bd 472a 883e c578 ecbe da1e f23d
-0.36567646 0.048636623 0.049162593 -0.33156264 -0.021423984 0.27196354 -0.3499619 0.15046684
0.32680595 0.0016307632 -0.015040344 -0.055393457 0.27944785 0.10075318 -0.27321148 0.22224937
0.107757725 -0.36934564 -0.2337357 -0.1766273 0.032876894 -0.01717128 -0.5720117 -0.0122528495
-0.1258147 -0.07286721 0.020337814 -0.39808562 0.6180895 -0.4224176 0.024993153 0.0036547405
-0.0951815 0.068792395 -0.10966473 0.21250728 -0.3844736 0.38090414 0.014582973 -0.37510437
-0.16425638 0.09869202 -0.29411983 -0.3031792 -0.02949644 0.2084055 -0.004933026 0.06842741
0.05937814 -0.23857895 -0.27398503 -0.18659776 -0.5445328 -0.2197883 0.18181054 -0.6486068
-0.13772447 0.47493508 -0.075623155 -0.29039696 0.28143936 0.26741973 0.015576399 0.19577919
-0.15935482 0.1795111 -0.17363799 0.3539837 -0.36209813 0.2553452 -0.11019618 -0.13681741
-0.10199888 0.28321058 0.31124097 -0.16194619 0.3522112 -0.0005264574 -0.23017353 0.24808106
-0.34083322 0.36942336 0.02123762 -0.05535831 -0.046141233 0.0627707 -0.24738427 -0.043612543
-0.102079764 -0.2221865 0.48983854 -0.21012035 0.029328626 0.28743678 -0.22257176 -0.18334882
0.39944136 0.065789655 -0.3558995 -0.16352315 -0.16602457 -0.49881062 0.31918857 -0.10369528
0.0321212 -0.11821127 0.19276717 0.31259713 0.41723874 -0.42460996 0.27116495 0.06644708
0.17623405 0.07390119 0.06417191 0.19274305 -0.08837324 -0.3224823 -0.13479003 -0.0026939835
-0.16619666 -0.28422654 0.16895725 0.13715144 0.31565312 0.6166053 -0.12025937 -0.1133473
0.14533746 -0.02599945 -0.23473257 0.24951603 -0.03227053 -0.18536133 -0.26770335 -0.011202439
-0.33948618 0.19488531 -0.07547455 0.2416955 -0.20432433 -0.43209755 0.4169951 -0.20629889
0.08649815 -0.15758811 0.54016745 -0.10001347 0.060089763 0.2869758 -0.42207354 -0.3366886
-0.054885168 -0.107327916 -0.06846666 -0.43582484 0.39703134 0.3531772 0.06259338 0.097639404
-0.24920776 0.17718774 -0.1336229 0.4986631 -0.33168456 -0.063980654 0.44004944 -0.119335614
-0.33598673 0.47708577 -0.37194383 0.1226839 -0.13510194 -0.3680538 0.47258633 0.13605973
-0.24908435 0.36353284 0.027354043 -0.23832199 0.16739057 -0.06515218 0.048816897 -0.16909659
-0.50557286 -0.19773264 0.25150123 0.4303261 -0.060129493 0.08998877 -0.14354542 -0.15764502
0.4017084 -0.26633212 -0.37558144 0.051550865 0.23563835 -0.13212901 -0.09538554 -0.1751536
-0.12681772 -0.24685128 -0.107777536 -0.11870614 -0.4662134 -0.12105664 -0.43645552 0.4772923
-0.049833376 0.3688694 -0.42308053 -0.19150035 -0.07865373 0.26594755 -0.4618589 0.11822291

L2.conv.bias f4 [24]
00000000: 6b8a c8bb 7873 05bd c89e b93c a987 56bd
00000010: 092e 2a3c e4bd 9cbd eedb c73d b506 cabc
00000020: 0325 4f3e bd54 a6bc 7f23 f83d 4021 083d
00000030: bf85 f03d 7917 7d3d aaeb 96bd 5432 dfba
00000040: ebe6 453d 7e7b 633c b4a4 9e3d 65f1 1e3c
00000050: 8b56 0bbe ebb5 953c d31a 2c3d 980a 93bd
-0.0061200163 -0.032580823 0.02265872 -0.05237547 0.010386952 -0.07653406 0.09758745 -0.024661401
0.20228963 -0.020304078 0.12116145 0.033234835 0.1174426 0.061789963 -0.07369168 -0.0017028549
0.048315924 0.013884423 0.077462584 0.009701108 -0.13607232 0.018275222 0.04201777 -0.07179755

L2.fuse.weight f4 [16, 24, 1, 1]
00000000: 47f1 70be 7827 463e 84b7 123e 0458 bebe
00000010: b3e6 23bd dc41 94be b2d0 c63e 2f43 4abe
00000020: 5b41 3c3e a811 1cbe 31f2 a83d 8e44 16be
00000030: cc4a e33e 5e11 f33e 4d1e aabd 66ca 933d
00000040: 5b7d 79be f81f c9be 1ea7 9a3d 3ed0 dfbb
00000050: bc12 a83e 3c8b dc3d 7f67 833d f6a4 3c3f
00000060: cea2 893e c285 a5be af82 d43d 74e0 093d
00000070: 0b90 203e 4656 e0be d10c 5d3d 636f 0cbc
00000080: c03f d8bd 5288 553e cead 91be 99cc 0abe
00000090: 1568 103e 4771 75be 9dac 9f3e 01e3 00bd
000000a0: 2888 1abe 8c04 89be 4052 d63e cf14 a0be
000000b0: dbde a13e 6dc1 b83d 3758 1bbd 3565 093f
000000c0: ba8f e6bd 89e4 0fbe e0ed 38bf d484 013e
000000d0: 704b bbbe 9de8 cd3e 128a 25be 907b 3a3e
000000e0: 8f78 6b3d 71fe 083e ee32 a9bd 0b77 f3bd
000000f0: ac10 d0bd f838 5b3d 7c48 0e3e e590 f93c
00000100: cab6 77be 46b8 13be 6ea0 aebe 9dd5 933c
00000110: 1726 9a3b ab35 1abf f6e8 9abd 60bb 7a3e
00000120: f48d c83c c66d 58bc d9ee 98bd d061 ec3e
00000130: 8039 f0be cabc 643e 8d58 d6be 7d31 bb3d
00000140: 2c5f b0be 8929 7d3e 694a ebbc b0fb 69bd
00000150: 6a91 2cbe 4cb6 1ebe 2812 423e 8ae5 eb3e
00000160: 660f 9dbd bc21 e2bd 9663 09bf 70e5 2cbe
00000170: f9f6 2c3e 32ae 2d3e 5716 533e 90fb 9cbe
00000180: e41c 13be 893f 613d 2045 843e 7ca8 823d
00000190: 2669 0ebe 7633 26be 8d79 1a3e c9cf 073e
000001a0: f177 90bc 30c4 24be c5f3 673e cd8b 683e
000001b0: 6c53 d6be 85cb 2b3f f04f e13d e37f ce3c
000001c0: b594 77be 217f 5bbd b912 983e 3d88 36be
000001d0: 229f afbe a6a4 adbd 7a43 c53e b01d a63e
000001e0: 6a83 223e d831 dbbd 084f 383e 3877 97be
000001f0: 6207 373e dc9a d63c 4fdd 0f3f 5d53 58be
00000200: c202 c3be fdd1 78bd 0cc2 bcbe de07 3fbe
00000210: 15cd 353e 68e3 37be d8ff 60be 544b 29bd
00000220: a575 bdbe af23 073f fa6e 8cbe 6427 b5be
00000230: 7022 33bd 6f37 b13e 0a7c 4a3e 2f41 17bf
00000240: 6a07 9abd a816 163e d447 9b3d 3bc4 ebbd
00000250: 0857 093c efca 393e 1bfa 303d 3580 b03d
00000260: b32c 6cbd 31ab 83bd fca2 67be f5be a9be
00000270: 7017 c7bd 6a1b b7bd 80a9 a63d d4bf 41bd
00000280: 2b5e 003f dbf4 853e e7e2 9a3e d4bd 6f3e
00000290: 8550 0dbf be43 913e 5889 af3e 9b2a 1ebf
000002a0: 6edf 9e3e ca0e 64be da24 2e3e ffdf 8d3e
000002b0: 2609 5d3e a5f5 ce3e d3d1 5a3d 54d5 0b3d
000002c0: 916f b8be fa07 8a3c eb36 923e 09d9 a93d
000002d0: 2c96 bcbe 7255 70bd d749 6cbe 5209 a03c
000002e0: 69ca 03bf 08ee 8ebc 4121 773e 1925 d4be
000002f0: a349 3abe 7911 b4bd 1686 a83e 6efe cabd
00000300: f4a8 3a3e e78b 94be 6d55 07bf 6f07 21be
00000310: cb62 5b3d 0be6 da3d f604 9c3d be28 093e
00000320: af87 e33e 526c 063e cb6e 20be e789 13be
00000330: 7258 27bd 4f94 5d3e 1c4f 5f3e b840 e4bd
00000340: fc2b 0dbe 2c39 f13c a879 2b3f e6b0 b8be
00000350: 850f 1dbe 20e8 47be 01f8 34be e8de d33e
00000360: c55a b2be 4dc6 c23d 819c d6bd baa5 bebd
00000370: 07cd 643e 3ab4 743e 5631 d93c 8f5d 143f
00000380: a38d 3b3e 22f1 c83c cffc 963e fb71 0cbf
00000390: 47c0 80bd a197 12bf 3e1b 513e 1c7e 49ba
000003a0: e1ec 3e3d d3bf 00be 1733 a3bd f8a3 14be
000003b0: 88ae b63e 691b 86be 9ecb 8b3e 3d8d 233e
000003c0: 7f81 133e dbe8 9d3d 08a7 bfbd e925 073e
000003d0: 7ab3 b9be e931 c2be a0ea 293e a564 3fbd
000003e0: cd15 993d d504 dabc 8c13 da3e 2da3 ddbc
000003f0: 7bb7 88be c422 0cbe 1b67 9d3e 29c8 843e
-0.2352954 0.19350994 0.14327818 -0.37176526 -0.040014934 -0.28956497 0.38831097 -0.19752191
0.18384306 -0.1524111 0.08249319 -0.14674589 0.44393003 0.47474188 -0.08306561 0.07216339
-0.24364226 -0.39282203 0.07551406 -0.0068302443 0.32826793 0.10768744 0.06416225 0.7368921
0.26882023 -0.32328612 0.103764884 0.03366132 0.15679948 -0.4381582 0.0539673 -0.008571479
-0.10559034 0.20852783 -0.28452915 -0.1355461 0.14102204 -0.23968993 0.3118638 -0.031466488
-0.15091002 -0.26761281 0.41859627 -0.31265876 0.31615338 0.09021268 -0.037925925 0.53670055
-0.112578824 -0.14052023 -0.7223797 0.12648326 -0.36580992 0.40216532 -0.16165951 0.18211198
0.05748802 0.13378312 -0.08261667 -0.1188794 -0.1015943 0.053521127 0.13894838 0.030464599
-0.24190822 -0.14425763 -0.34106773 0.018046195 0.0047042477 -0.6023814 -0.07563965 0.2448554
0.024481751 -0.013209766 -0.074674316 0.46168375 -0.4691887 0.22337642 -0.41864434 0.091402985
-0.3444761 0.24722876 -0.028722005 -0.057124794 -0.16852346 -0.15499228 0.18952239 0.46073562
-0.07668953 -0.110415906 -0.5366758 -0.16884398 0.16891088 0.16960981 0.2061399 -0.30660677
-0.1436649 0.054992232 0.25833988 0.06379792 -0.13907298 -0.16230568 0.1508543 0.13262857
-0.017635318 -0.16090465 0.22651584 0.2270958 -0.4186052 0.6710742 0.11001575 0.025207466
-0.24177821 -0.053588036 0.29701784 -0.17825408 -0.34301096 -0.0847867 0.38528043 0.32444525
0.15870443 -0.10702866 0.17998898 -0.29583144 0.1787391 0.02619689 0.56197065 -0.2112555
-0.38088042 -0.060747135 -0.36866796 -0.18655345 0.17754014 -0.17957842 -0.21972597 -0.041331604
-0.37003818 0.52788824 -0.27428418 -0.35381615 -0.043734014 0.34612605 0.1977388 -0.5908384
-0.07520945 0.1465708 0.075820595 -0.11512037 0.008382566 0.1814382 0.04320727 0.086182036
-0.057659816 -0.064291365 -0.22620767 -0.331535 -0.09721267 -0.08940776 0.08137798 -0.047302082
0.5014369 0.26163372 0.30251238 0.23412257 -0.5520099 0.28371996 0.34284472 -0.6178376
0.31029838 -0.22271267 0.17006245 0.27709958 0.21585521 0.40421787 0.05342276 0.034138992
-0.36022618 0.016849507 0.28557524 0.08293349 -0.36833322 -0.058675237 -0.23075043 0.019535694
-0.5148073 -0.017447487 0.24133779 -0.41434553 -0.18192153 -0.08792395 0.329148 -0.0991181
0.18228513 -0.29012987 -0.52864724 -0.15725492 0.053561013 0.106884085 0.07618134 0.13394448
0.44439456 0.13127258 -0.15667264 -0.14408074 -0.040855832 0.21638606 0.21807522 -0.111451566
-0.1378631 0.029446207 0.6698251 -0.36072463 -0.15337951 -0.19522142 -0.17672731 0.41381
-0.34834877 0.09510479 -0.104790695 -0.093089536 0.22343837 0.23896876 0.026512783 0.5795526
0.18315749 0.024529044 0.29489753 -0.5486142 -0.06286674 -0.5726262 0.20420548 -0.0007686333
0.046612624 -0.12573175 -0.07968729 -0.14515674 0.35680032 -0.26192787 0.27303785 0.15971847
0.14404868 0.07710429 -0.093580306 0.13198055 -0.36269742 -0.37928703 0.16593409 -0.04672684
0.07474861 -0.026613632 0.42593038 -0.027055347 -0.26702484 -0.13685137 0.30742726 0.2593396

L2.fuse.bias f4 [16]
00000000: 0c16 973d a3e7 d2bc e5d8 6abd 980b 96bc
00000010: 6380 efbd 0a30 813d db35 423d 24f1 923c
00000020: 46a4 c53d 98d8 833b c789 b73d da26 bd3d
00000030: e2da 85bd 64b4 933c 6f6c 88bc 0277 cf3d
0.07377252 -0.025745219 -0.057335753 -0.018316075 -0.1169441 0.06307991 0.04741464 0.01793725
0.09650473 0.0040236227 0.08961826 0.09235926 -0.06535889 0.018030353 -0.016653268 0.10130121

L3.project.weight f4 [32, 16, 1, 1]
00000000: c336 bbbe b5fe 283e cd03 febd 5da4 993d
00000010: f4ec f93e 3fd5 b9be 78df 4c3d 2ca2 923e
00000020: bd63 d4bc 7dce 02bd c291 983e 6bda 083e
00000030: 9b78 643d 8528 363f a5d2 ec3e 1fa1 723c
00000040: ab07 c93d eb61 083e 2f09 80be 348d c63e
00000050: ea93 83be 8d74 c23e b0d1 e03d 6f31 5c3c
00000060: 2e49 813e 391a 51be 093c 33be 254f 33bd
00000070: 22fa cbbd f9a1 02be 680b 1dbf c41e d93d
00000080: 052a 53be 7c37 d0be 5ff2 1abc 4429 4fbd
00000090: 89f6 d53e dfd4 973d 9288 823c e7ca 0e3f
000000a0: a820 8f3c 7a1d e7bd 2df3 6c3e 6c40 c53e
000000b0: 2bd9 6abc 1c3b 2d3f 3195 a03d ced6 8b3e
000000c0: 12e0 5d3d 70e9 fabb 0bfe 7ebe 7a16 9abe
000000d0: 23da e1be 25ea 6b3d 9fc6 3ebe 601f 00be
000000e0: 949c 53be b6d1 963e b79c f1be 59b6 583e
000000f0: 1a9b c2be 7022 90be e25a ce3d 9644 02bf
00000100: aa00 1c3e e6c0 30be b753 aabd 359c d8be
00000110: bdaa f7bd 2629 923e 98d7 c13d 87d4 e4bd
00000120: d46d 43be aafb f3bd 62ae 80be 0441 2b3f
00000130: e886 a8be 32a8 2abe ef6e 7fbd 2eb7 3ebd
00000140: a4e0 4abe 134c 02bf a8bd 303f 6991 01bd
00000150: 7244 933d ba3d 8dbe 1b19 323e dced 06be
00000160: c70d 113e 5de7 df3e 735e 003e 0e21 95be
00000170: 8fad aebd fda9 1dbd 6417 bcbd 4914 f3bd
00000180: 1ce8 ff3d cc1b 9cbe a670 383e b51f 97be
00000190: e213 373f b97a e8bd 5597 823e 4f22 a53d
000001a0: eadd f23d 2a49 863e 519b bb3e f312 09be
000001b0: 088d fcbd de67 40bd b6f2 03be 8310 a13d
000001c0: 924c 75bd beaf b5be dec5 3e3f 20fc fb3d
000001d0: f0fc 593d 04a6 dc3d f7a2 cd3a 1b9f ccbe
000001e0: b398 13bd 4d62 1b3f a98e f2bd e722 5fbd
000001f0: 105f 38bd 4e86 153a e374 a73d e474 61bc
00000200: befc c3bd ad12 dbbe d710 303e e66b f8bd
00000210: ad67 abbe fdd6 e4bd 3e27 0cbf be0f 60be
00000220: 796d b2be 49cb 3dbe 06bb 5d3c 6b90 8bbe
00000230: 6811 2fbe 60c6 a9be 8d85 8a3e e199 dfbe
00000240: 079e 4fbc b566 763d dd4b 0e3c 8401 483f
00000250: 44aa b8be 41e4 0a3e 799a 883e a77e ebbc
00000260: 77f8 f7bc 3358 f23d d14d f3bd 3652 003e
00000270: a671 aa3c 5f46 82be 210a 303e 660c 143f
00000280: 7b23 44be 744c e7bd 145a 38bf d647 cdbe
00000290: e9b9 aa3d 29ff 05bd ccf0 f63d 100d 443e
000002a0: d2b5 18bf 7832 05be 093a 1a3e 072a 9e3e
000002b0: 172d 353d 10d2 25be 51d3 283c 3370 8fbe
000002c0: fe5a 1bbe 49dc 46bd ac0d dbbb bade 96be
000002d0: f0df c03d 9002 313d d34b 16bd a57a 0b3f
000002e0: 4d55 1a3e 31c3 d7bc f821 103e 85b8 603f
000002f0: d3f0 fa3e c4e7 e33d 0289 973e e0ba 19bd
00000300: 0a29 9abe ef9a f33d 0cfe 523e 57d1 6e3f
00000310: 0fb9 61be a74c 38bd 6221 a03d dce6 273e
00000320: 623e e6bd da65 79be 9291 e33d e61e 42be
00000330: 1f7e ab3d 8161 2abd 1d81 123e 7a00 7a3e
00000340: dd5a 64bc cc5c 29be edd7 b4be f1c0 6cbc
00000350: ae45 c2be 7b90 c13e 7d66 7cbd d683 203e
00000360: eb05 8abe 4d4e cb3b f0ad d6be 5d0e bd3e
00000370: feef 3f3e b6a6 a63c 20ac d63e 3519 743d
00000380: 3089 04bf 3765 0cbd 2816 9cbd 7591 acbe
00000390: 0a45 5d3d e5e9 8fbe 888d 55bd 7022 5c3d
000003a0: 1947 4c3e 1798 783e c07c c43e 5646 733e
000003b0: cf2e 45be 13d4 133f 1ef3 503e 8385 36be
000003c0: f8f7 8fbe ef2e 373e 072f 52be ba7e 90bd
000003d0: 9ad4 5c3e 484e 66be 19f9 a73d 736b c23e
000003e0: ce7f 5fbe 91db eebd fe44 d83e 69b8 55bc
000003f0: 8822 393e 8db1 423f 3179 033f fe3e a3bd
-0.36565217 0.16503413 -0.12403069 0.07502053 0.48813593 -0.36295506 0.050017804 0.28639352
-0.025926465 -0.031935204 0.29798704 0.1336457 0.05577908 0.7115558 0.4625446 0.014808922
0.09815916 0.13318603 -0.25007007 0.38779604 -0.25698787 0.37979546 0.10977495 0.01343952
0.25251144 -0.2042016 -0.1750337 -0.04377665 -0.099598184 -0.127571 -0.6134553 0.10601571
-0.20621498 -0.4066733 -0.0094572 -0.050576463 0.41789654 0.07413649 0.015934262 0.55778354
0.017471626 -0.11284919 0.23139639 0.38525712 -0.014334003 0.6766832 0.07840956 0.2731232
0.05416877 -0.0076572224 -0.24901597 -0.30095273 -0.44111738 0.057596345 -0.18630455 -0.12511969
-0.20665199 0.29456872 -0.47189876 0.2116331 -0.38008958 -0.28151274 0.10075928 -0.50885904
0.15234628 -0.17261085 -0.083167486 -0.42306677 -0.120931126 0.2854702 0.09464949 -0.11173349
-0.19084865 -0.119132355 -0.25133044 0.6689608 -0.32915425 -0.16665724 -0.062361654 -0.046561413
-0.19812256 -0.5089733 0.6903939 -0.031632815 0.07190789 -0.27586156 0.1739239 -0.13176674
0.14165412 0.43731204 0.1253603 -0.2912678 -0.085291974 -0.03849219 -0.09184149 -0.118691035
0.12495443 -0.30489957 0.18011722 -0.29516378 0.71514714 -0.113515325 0.25506082 0.080631845
0.11858733 0.26227695 0.36641935 -0.13386135 -0.12331587 -0.046974055 -0.12885556 0.078644775
-0.059887476 -0.35485643 0.7452067 0.123039484 0.053219736 0.107738525 0.0015688826 -0.39965138
-0.036034297 0.6069687 -0.118436165 -0.054476645 -0.045012534 0.0005703912 0.08176591 -0.013760779
-0.09569691 -0.42787686 0.17193924 -0.12129955 -0.33477536 -0.11173818 -0.5474738 -0.21881005
-0.34849146 -0.18534578 0.013533359 -0.2725862 -0.17096484 -0.3315916 0.27055016 -0.43672088
-0.012671954 0.060156543 0.008685079 0.7812731 -0.36067402 0.13563634 0.26680353 -0.028746916
-0.030269844 0.11833229 -0.11880077 0.12531361 0.020806145 -0.25444314 0.17191364 0.5783142
-0.1915416 -0.11293879 -0.7201245 -0.4009387 0.08336241 -0.032714043 0.12057647 0.19145608
-0.59652436 -0.13007534 0.15061201 0.3089144 0.044232454 -0.16193414 0.010304288 -0.2801529
-0.1517143 -0.048549924 -0.0066849794 -0.29466802 0.09417713 0.043215334 -0.036693405 0.54484016
0.15071602 -0.026338192 0.14075458 0.87781554 0.4901186 0.1112819 0.29596716 -0.037531734
-0.30109435 0.118947856 0.20604724 0.9328818 -0.2204325 -0.044994976 0.07818867 0.1639666
-0.11242367 -0.2435526 0.1111175 -0.189571 0.08373665 -0.041596893 0.14307065 0.24414244
-0.013937679 -0.16539305 -0.35320988 -0.014450298 -0.37943786 0.37805542 -0.061621178 0.15675291
-0.2695764 0.0062044025 -0.4192958 0.3692502 0.18743894 0.020343166 0.41928196 0.05959435
-0.5177183 -0.034276213 -0.076214135 -0.33704725 0.05402092 -0.28108135 -0.052136928 0.05374378
0.19948997 0.24276768 0.38376427 0.237573 -0.19256137 0.57745475 0.20405242 -0.17824368
-0.28118873 0.17888997 -0.20525752 -0.07055421 0.21565476 -0.224908 0.082018085 0.37972602
-0.21826097 -0.11662973 0.42240137 -0.013044455 0.18079579 0.7605217 0.513568 -0.07970999

L3.project.bias f4 [32]
00000000: bba9 7a3d c21b a93d 1685 593d 78e6 bfbc
00000010: 65a6 953d 3add 5f3d f234 e23c 2aa7 49bd
00000020: 587f af3c f4e8 79bd f94e 27bd 097f 823c
00000030: 892c 0e3d ed06 94bd abac ca3b e9b5 d2bc
00000040: 471f e13d 2db0 853d 2202 bcbd f2c0 b0bd
00000050: 9d6f eebc 4957 2dbd 0b43 973c ca23 a7bd
00000060: ebd9 1b3d 99ed b3bd 2652 573d d7d5 7d3c
00000070: ceb4 573d 3145 a13d 6cb4 683c e740 34bd
0.061197024 0.082572475 0.053105436 -0.023425326 0.07307128 0.054654337 0.027613137 -0.049231686
0.021423027 -0.061013177 -0.0408468 0.015929716 0.03471044 -0.072278835 0.0061851344 -0.025721507
0.10992294 0.065277435 -0.09180094 -0.086305514 -0.029105956 -0.04231957 0.018464586 -0.08161123
0.03804962 -0.087855525 0.052568577 0.015492878 0.052662663 0.07874525 0.014203172 -0.04400721

L3.conv.weight f4 [32, 1, 3, 3]
00000000: dcf8 4fbe 3109 af3e db60 24be fa18 58be
00000010: 60e1 fb3c a6ac e3be 03c2 7bbe 85b2 4b3e
00000020: 2a28 acbe dfad ca3d a138 1cbe c93b 8a3c
00000030: 211c 153e a1ce 893e 344c 883e 3031 b93c
00000040: 51e3 a23e 2dee ad3d 349c 9bbc 7cf1 ce3e
00000050: 5e5c 403e f169 04bf 819f bbbc b94c 743e
00000060: 9f3f 72be 5e4c d3bd 9a15 c1bc 527a a2bd
00000070: 19be edbe 402e adbe 322c 523d 94ff 5fbe
00000080: 865c 0fbe ece9 933e c2cd 0c3f adb4 9d3e
00000090: 681d 34be 064f bb3e 279d 9abe 3dea b8bd
000000a0: 2440 7d3e c955 ab3e 7c85 153e 9b6b e1be
000000b0: 3237 873e 1c9f 0abd 99b9 e3be 914b 67be
000000c0: 65ab 1fbe 25b5 773e 2427 6c3e 8c53 fc3a
000000d0: cdfc aa3e f0a4 f53e dad8 70be f6c7 093d
000000e0: 9326 a33e 8339 fabd 3b66 aabd 9cce 2a3d
000000f0: de6c 563e 7696 a6bc d42e 9b3d 474d f9bd
00000100: bf88 223e 8e13 463e e871 15bf 388f 1ebe
00000110: 5762 7d3e 4f3e 883d 72cf 9bbe 3a2e 9b3e
00000120: 1246 7b3d 89d9 d0be dc06 7ebe 3544 f23e
00000130: ac3c 2f3e b862 14bf c0a3 083e bbe1 133f
00000140: 792f e23d b8d6 81be 3f4f d6be 4b62 8cbe
00000150: b5c7 913d 1e71 ff3d b58e 5b3e 249a 483e
00000160: 3c5a e83e 9136 d33d d0c2 72be 39fe ad3e
00000170: dae5 873e 310d b0be 41a2 84be 4485 bc3e
00000180: 6c84 a0be a44e fcbe ba0e f5bd 7b9b a73d
00000190: 7384 1e3d e222 2bbe 1e6e ec3e 697e b73d
000001a0: 959a 0dbf c079 4bbc 4aac f13d 1561 7fbe
000001b0: d77c fdbd 3c81 383e a748 143e eaf2 11be
000001c0: 8d6f 7ebe 455e a4be ce43 1fbd dc48 90bd
000001d0: 92de a03e f1eb 423e bdd3 d83e f375 25be
000001e0: 5076 143e f82b c23e ae1d 56be 1a59 f43d
000001f0: 4e87 66be 1907 a53d 68e9 cfbc 620c cf3e
00000200: 179a 543e 138a 4bbe aba9 27bc 8d57 59be
00000210: a24d c1be f8fd 18be 5b20 6bbe 0354 bf3e
00000220: 5a54 8fbc 1d87 893e d3b2 8e3e 31ac 13bf
00000230: 47db 41be 0efd 373e c20f 13bf 43e7 39be
00000240: fa95 063f eb80 233e 2cf5 4dbe 6536 463e
00000250: 777b b63e 35de 7dbd 225a afbe 1ffb eabd
00000260: 0a62 a33e 7274 a13e 2949 14bc cf4a acbd
00000270: bc16 843d 32ad 01be 9cd9 98be 6f74 d4bd
00000280: b09f 04bf a04f bb3d f508 e23d 847b bcbd
00000290: 7569 3dbe 625e 3e3e c390 a3be 8aae e8be
000002a0: 4a1e 32bd bcd8 30be 7a5f 8dbe 1f68 773e
000002b0: ebff fc3e 8223 263e cc42 543d eb65 60bb
000002c0: f5b9 843d 1022 94bc 3dd3 9ebe 3772 91be
000002d0: a82d 03be da41 debe 0c9f 15bd b82d 14bf
000002e0: 59e9 36be 58c4 053f 15b1 8abe db98 f63e
000002f0: 4b10 cd3e b463 593e 2f20 a4be 9072 873e
00000300: a71b a43e 6dfd b0be a5cc 1abe d8f0 c23e
00000310: 797d 56be 2e6d 6d3e 9c3b 9bbe 28fb eebe
00000320: 5cf0 08bf 9570 70be 6b19 77be 5af0 9f3d
00000330: 3476 d83d dd48 923e 2b2f b53e 3a60 d13e
00000340: d6d6 babc 9557 843d 0911 f13e fdfa 00be
00000350: c44a 96be 9e92 1e3e 47c9 67be f8a6 333c
00000360: d336 e0bd 0161 963e d7dd 57be 82d4 64be
00000370: 4ead c2bd e21c 90be d980 38be e980 423e
00000380: 6762 08bd d3db 143e 3799 d4bd 4663 20be
00000390: d332 5b3e ed84 82be 215f b1be 7092 5f3e
000003a0: fc6d abbd 38fe 77bd 316f 083e b621 0dbe
000003b0: 7fe9 8dbe 6167 9f3e 0d63 b13e f385 ed3d
000003c0: 2d37 8d3d fd82 b93e 72b8 703e 788b 123e
000003d0: c5fb 52be f135 97be a797 993e 9059 06be
000003e0: c60b c2be 0cc6 c83d b22c 5d3e d788 eebd
000003f0: d759 b43d ef9c 9abe f1bb 4dbe 740d c0be
-0.20309776 0.341867 -0.16052572 -0.21103278 0.030747116 -0.44467658 -0.24585728 0.19892319
-0.33624393 0.098964445 -0.15255977 0.01687421 0.14561512 0.26915458 0.26620638 0.022606462
0.31814054 0.08492694 -0.018995382 0.40418613 0.18785235 -0.51724154 -0.022903206 0.23857392
-0.23657082 -0.103173 -0.02356987 -0.07933487 -0.46434096 -0.33824348 0.05131168 -0.21874839
-0.14000139 0.28889406 0.5500146 0.30801907 -0.17589343 0.36583728 -0.30198023 -0.090290524
0.24731499 0.33463886 0.14601701 -0.4402741 0.26409298 -0.033843145 -0.44477537 -0.2258742
-0.15592726 0.24190195 0.23061806 0.0019250973 0.33395997 0.479774 -0.23520222 0.033637963
0.31865367 -0.12218001 -0.0832028 0.041700944 0.20939967 -0.020335417 0.07577291 -0.121729426
0.15872477 0.19343397 -0.5837693 -0.15484321 0.24744545 0.066525094 -0.30431706 0.30308706
0.06134612 -0.40790966 -0.24807304 0.47317663 0.17112988 -0.5796313 0.13343716 0.5776631
0.11044211 -0.2535913 -0.41857335 -0.27418742 0.07118169 0.12472747 0.21441157 0.1959005
0.45381343 0.10313142 -0.23707128 0.3398302 0.2654255 -0.34385064 -0.2590504 0.36820424
-0.3135103 -0.49278748 -0.119656995 0.081839524 0.038700532 -0.16712525 0.46177763 0.08959658
-0.55314 -0.012419164 0.1180044 -0.24939378 -0.12377327 0.18018049 0.1448084 -0.1425282
-0.24847241 -0.32103172 -0.038883023 -0.07045147 0.31419808 0.19035317 0.42349043 -0.16158275
0.14498258 0.3792417 -0.2090976 0.11931057 -0.22512552 0.080579944 -0.025379851 0.40439135
0.20761906 -0.1987689 -0.010233323 -0.21224804 -0.37754542 -0.14940631 -0.22961561 0.37368783
-0.017496277 0.26860896 0.27870807 -0.5768462 -0.18931304 0.17967626 -0.5744592 -0.18154626
0.52572596 0.15967147 -0.20113057 0.19356687 0.3564107 -0.06197949 -0.34248453 -0.11473679
0.31910735 0.31534153 -0.009050646 -0.08412706 0.06449649 -0.12663725 -0.29853523 -0.103737704
-0.51806164 0.09146047 0.11036865 -0.09203246 -0.1849726 0.18590692 -0.31946382 -0.45445663
-0.043485917 -0.17270178 -0.27611905 0.24160813 0.49414 0.16224483 0.051821515 -0.0034240435
0.06480781 -0.018082649 -0.31020537 -0.28407452 -0.12810385 -0.43409616 -0.036528632 -0.5788226
-0.17862453 0.5225272 -0.27088228 0.48163494 0.40051493 0.2122944 -0.32055804 0.26454592
0.32052347 -0.3456835 -0.15117128 0.38074374 -0.20946302 0.2318618 -0.30318916 -0.46675992
-0.5349176 -0.23480447 -0.2413079 0.07809515 0.105694205 0.28571215 0.3538755 0.40893728
-0.02280752 0.064620174 0.4708331 -0.12595744 -0.29353917 0.15485618 -0.22635375 0.010965101
-0.10947957 0.29370883 -0.21080719 -0.2234669 -0.095057115 -0.28147036 -0.18017901 0.18994488
-0.03329697 0.14536981 -0.10380786 -0.1566287 0.21406107 -0.2549204 -0.3464289 0.21833205
-0.08370587 -0.060545176 0.13323666 -0.13782391 -0.27717206 0.3113356 0.34645882 0.115978144
0.068952896 0.3623275 0.2350786 0.14311016 -0.20603855 -0.29533342 0.29998514 -0.13120103
-0.37899607 0.098033994 0.21599081 -0.11647194 0.08806198 -0.30197856 -0.20091225 -0.37510264

L3.conv.bias f4 [32]
00000000: 159f bd3d a521 e9bb 0375 9fbd f781 97bd
00000010: bdc4 06bd 0937 163e a76e 01be 5d8e e6bc
00000020: 8419 6e3c 5660 d93d d036 313d 9fab 1cbe
00000030: 4a82 b73c 4bd3 fc3c 91ea 573d 346b 833d
00000040: deaf 393d 2a14 cfbd d0f2 c8bc 61d4 8cbd
00000050: 3e47 9d3c 1e4e 2dbd e5b9 a23d 3642 343e
00000060: c620 96bd cc0d d8bc 0bf6 583b ae09 c53c
00000070: 7640 ad3d 684d 11bd f6c5 7cbd 925f 3dbd
0.09258858 -0.0071146064 -0.0778599 -0.07397836 -0.032902468 0.14669432 -0.12639867 -0.028144056
0.014532451 0.10614078 0.043265164 -0.15299843 0.022400994 0.030862471 0.052713934 0.06416932
0.045333736 -0.10111268 -0.024529845 -0.068764456 0.01919901 -0.042310826 0.07945613 0.17603382
-0.0733047 -0.026373766 0.0033105637 0.024052467 0.084595606 -0.03547421 -0.061712228 -0.04623372

L3.fuse.weight f4 [24, 32, 1, 1]
00000000: 324d 0dbf 4b18 473d 9b3c 6b3c 5b32 323e
00000010: 8a72 99bd 40ac d3bd 09a6 3abe 529e aa3d
00000020: bacc 323e 28af 0e3e 3837 ea3d 7e3d 853e
00000030: 299a 6e3e 29cc 543e 9c05 79be 2862 29be
00000040: d1cd a03e c872 15bd 90d9 4fbd 4e69 ac3e
00000050: 929a a5be ccbc a63e 84c1 803e 837d 883e
00000060: ab8b d1bd e5e3 b03e 91f0 bbbe b8b0 b73d
00000070: 77a3 063f 017c c1bd 9c65 6d3d 99ff 17be
00000080: 3953 2e3f a0eb 72bd 3701 b13e 5427 bbbe
00000090: ebfe eb3a 72bb 953d 092a 213d d397 6cbc
000000a0: 079b d93e 17fb b5bd f4b9 7dbd 8912 a6bd
000000b0: f164 743e e80a a3be 575d 503e 8b1c 72be
000000c0: cf0b d13e 43e7 8d3d 0de9 afbd 7a18 d23c
000000d0: 3f0c afbd af70 bdbe 4313 1bbe 98ae 42be
000000e0: d71a d8bd a167 72bd d879 bd3e 3a69 d9be
000000f0: c678 e6bd 7b96 7fbd 2f1e 843e a89f cbbc
00000100: 863e 03be 34c3 4bbe 1ec6 313e 726e cf3e
00000110: 35a0 3abe 0cd9 bc3e 4aa8 1fbc 47d8 2ebe
00000120: b088 8d3e 1299 d6be a86e 1c3d 20df 29be
00000130: 3b09 5d3d 7495 26be ec5d 5bbe b020 20bc
00000140: e2a1 2f3c 17ca 25bf ab40 16bf 40a1 bc3d
00000150: 5ad1 453e f170 01bd cc84 6abd 020a a7bd
00000160: 8255 2d3b a972 0c3d 3d8b 033f 83a9 efbc
00000170: 763c 98bd 84b0 22be 07f4 babd 5403 0abe
00000180: 539c 573f cf5b 0dbd 63e8 593e 6183 1bbe
00000190: e6f4 873d e8e3 fcbd 62fb f1bd 32a7 89bd
000001a0: 92e3 713e 920a ae3d d203 973d 4664 52bb
000001b0: ae1a 77bd e4fa b3be b92c 923e 9d36 61be
000001c0: 4527 20bd 3a0f 1a3e 5aca 8abc 0cc4 c4be
000001d0: 9c47 e63e 6589 81be 2743 93bc 690b f8be
000001e0: 18d4 8b3e b3f8 9b3c d935 553e 7be6 0bbe
000001f0: 25ad 85be 1f43 ba3d 9cc6 febe dde5 19be
00000200: 405e bc3d 332a 9fbe 3732 6c3c 1f6d 5b3d
00000210: 1767 833f 2d51 a23e 201e 73be 66f7 36bd
00000220: 41df ab3e e3b1 94be b36d f7bd 66de 99be
00000230: afac 543e fc48 e33e 96fc d1bd 0aa2 31be
00000240: b901 f13e fd5e 97be 025b f4bd 3f9c 043e
00000250: 03bb 5abd 9c62 41be 632d cebc fd28 4dbd
00000260: deea 603c 7f49 5d3d f553 873d 36d0 77be
00000270: 9988 69be 7bfa 9dbe 79f3 63be ed6b 243e
00000280: 973b 11be 7a4d bfbd 8efc 953e 4b65 3dbc
00000290: 3475 2a3d 4ce8 edbe 8830 c8bd 568e 193c
000002a0: b9ab e33d da15 863e 15cd cd3d 4ff3 01bf
000002b0: 911e bebe 9ba6 d6be 0e50 a0bc e222 3dbe
000002c0: 1bde adbe a869 773e 4c44 8d3e 4164 eabe
000002d0: 4cbb 1f3e d2a9 783d 5485 88be a1f0 e2be
000002e0: 5ba5 d5be 600c 9a3e e4ea 9a3d b1b8 a3bd
000002f0: fbd6 cabd 7dda 6abc b64d 0bbe 5ff4 f03e
00000300: 6a8e f23e cab4 80be 4a92 763c bb46 773c
00000310: d0e3 5ebe a18e ef3d 92b5 103e b1ad a23c
00000320: 9572 13be d2d8 2dbe a04a 0bbf a690 bb3e
00000330: 03d6 5f3d dddc 873e c35c 81bd 2ee8 96bd
00000340: b969 e63d e9b5 c9be 8e54 1abf 2b30 c3bd
00000350: f672 3ebc 0903 b2bd 7828 16be 9308 083e
00000360: e315 983e f63a 903b e8ab bf3d bcc6 a6bb
00000370: 89fa a73e 7f3a 1e3e 11c4 003e fbef d2be
00000380: 48c0 1ebd 3ff3 80be 340f 58be cf8f 123e
00000390: a233 e7be 5d32 d33e 9353 613e 6ce1 573f
000003a0: 0127 6abd 22b7 32be fb5d afbe 9cdf 1b3d
000003b0: bff0 1d3d 271b 73be 5841 4c3b aaa0 7b3e
000003c0: 1c56 d6bd 17b3 8abe 094a 9bbe 2384 b03d
000003d0: bdb0 d53e ea98 34bd a480 453e 203a 2c3b
000003e0: 74f9 443d 48e9 7abe 568e c8be dde3 923e
000003f0: 3810 a1bc 6f52 323e 73f3 91be f7c5 09be
-0.55195916 0.048607152 0.014357711 0.17402022 -0.0749255 -0.103355885 -0.182274 0.083309785
0.1746091 0.13934004 0.114363134 0.26023477 0.23300995 0.20781006 -0.24318546 -0.1654135
0.31407025 -0.036486417 -0.050744593 0.3367409 -0.3234449 0.32565916 0.2514764 0.26658258
-0.10231718 0.3454887 -0.36706975 0.08969253 0.5259318 -0.0944748 0.05795823 -0.14843597
0.6809574 -0.05930674 0.3457124 -0.36553442 0.0018005049 0.07311143 0.03934673 -0.014440495
0.4250109 -0.08885782 -0.061944917 -0.08109004 0.23866631 -0.31844258 0.20348106 -0.23643701
0.40829322 0.06928875 -0.08589373 0.025646437 -0.08547258 -0.37000033 -0.15144067 -0.19011915
-0.10551994 -0.05918086 0.37007022 -0.42463094 -0.112535045 -0.06239937 0.25804278 -0.024856403
-0.1281682 -0.19898683 0.17360732 0.4051395 -0.18225177 0.36884344 -0.009744713 -0.17074691
0.27643347 -0.41913658 0.038191468 -0.16589022 0.05396388 -0.1626795 -0.21422547 -0.009773418
0.010719748 -0.6476149 -0.58692425 0.092104435 0.19318143 -0.03160185 -0.05725555 -0.08156206
0.0026448672 0.034289036 0.51384336 -0.029255634 -0.07433407 -0.15887648 -0.09128576 -0.13477832
0.84222907 -0.034511384 0.21280055 -0.15186836 0.066385075 -0.12348157 -0.118155256 -0.06721343
0.23621967 0.0849811 0.073737755 -0.0032103225 -0.060328178 -0.35152352 0.28549746 -0.2199349
-0.03909995 0.15044871 -0.016942192 -0.38430822 0.4497651 -0.25300136 -0.017976357 -0.48446205
0.27310252 0.019039487 0.20821323 -0.1366214 -0.2610866 0.090948336 -0.49760902 -0.15029092
0.09197664 -0.31086883 0.014416269 0.053570863 1.0265836 0.31702557 -0.2374196 -0.04466953
0.33568767 -0.29041967 -0.1208147 -0.3005249 0.20768999 0.4439162 -0.10253255 -0.17346969
0.47071627 -0.29564658 -0.11931421 0.12950228 -0.053401005 -0.18885273 -0.025168126 -0.050087918
0.013727872 0.05402517 0.066078104 -0.2420052 -0.22806014 -0.30855164 -0.22260846 0.16056795
-0.14182888 -0.09340949 0.29294246 -0.011559795 0.04161568 -0.4646629 -0.097748816 0.009372314
0.11116738 0.26188546 0.10048882 -0.50761884 -0.37132695 -0.41923985 -0.019569423 -0.18470338
-0.33958516 0.24161398 0.2759117 -0.45779613 0.15598792 0.06070883 -0.2666422 -0.4432421
-0.4172772 0.30087566 0.07564333 -0.079942115 -0.099042855 -0.014334318 -0.13603863 0.4706144
0.47374278 -0.2513793 0.0150495265 0.015092547 -0.21766591 0.11697126 0.14131764 0.019858213
-0.14399178 -0.16977242 -0.54410744 0.36633795 0.054647457 0.26535693 -0.06316521 -0.073685035
0.11250634 -0.393966 -0.6028527 -0.09530672 -0.0116240885 -0.08691985 -0.14663875 0.13284521
0.29704198 0.00440156 0.093589604 -0.005089609 0.3280833 0.15452002 0.12574793 -0.41198716
-0.038757592 -0.25185582 -0.2109955 0.14312671 -0.4515658 0.41249362 0.22004537 0.8432834
-0.057166103 -0.17452672 -0.3425139 0.038055047 0.03855967 -0.23740827 0.0031166878 0.24573007
-0.10465643 -0.2708976 -0.30329922 0.08618953 0.41736403 -0.044091143 0.19287354 0.0026279762
0.04808946 -0.24503052 -0.39171094 0.2868947 -0.019661054 0.17414258 -0.2850605 -0.13454424

L3.fuse.bias f4 [24]
00000000: 801e 213e 7550 5cbd 8308 74bd 166d 923c
00000010: 28d7 3fbd 7b39 aebd 7663 ab3c c1e3 f9bc
00000020: f315 583d d957 9a3d 506b afbc d5db 1bbd
00000030: 1dcc 8c3d 3d0c 833c 387d ac3c cebd 0dbd
00000040: 34a5 c4bb 4d85 683d d9e4 a03b e838 7b3d
00000050: 67aa a8bd 0f9e f53a 8e5e c3bb 825a cb3d
0.15734291 -0.053787667 -0.05957843 0.017874282 -0.04683605 -0.08507057 0.02092145 -0.03050411
0.052755307 0.07536287 -0.021413475 -0.038051445 0.06874869 0.015997047 0.021055803 -0.03460484
-0.006001139 0.05676775 0.0049100933 0.061333567 -0.08235627 0.0018739122 -0.0059621995 0.09929372

L4a.project.weight f4 [40, 26, 1, 1]
00000000: b5e5 6e3e 8382 2e3e aab0 b53e db4c cfbd
00000010: ab37 423e fc44 bdbe a941 8c3e 9f4e 803d
00000020: 8121 66bd 5db9 a2bc f73b 9dbe a6da f8be
00000030: e2fc 1b3e 93ab 773b 8f65 bbbe 8170 c9bd
00000040: 2b6f 3a3c 62e9 243e e59b cebc 8b5c f7bc
00000050: fda9 ccbb 202a 88be 6776 1dbe 40f6 203e
00000060: f214 aebe 77ee 98bf 1c35 5fbe 9792 c2be
00000070: 9b15 28bd 056d 7dbd cc1f 58bd b796 f2bd
00000080: 19c6 873e 0aaf 9c3e 5d1b adbe 79bf b33b
00000090: 1058 333f edd1 0f3e b45a 5e3d b01e 8cbd
000000a0: 5abf d9be 7f49 a73e 8439 57be f20c a8bd
000000b0: 7740 a8bd efdc 573e 0e5d c0bd 9a42 8cbd
000000c0: 9875 f73e bd78 30bc 500b a13d 6ef2 61bf
000000d0: dc88 bfbd adb0 c5be aa8d 403c 514b 42be
000000e0: 20dc 22bf f5fe 90be 27ec 4fbe 413c ae3d
000000f0: ed28 433e a668 e9bd 7d9e 07bf 7694 c9be
00000100: a242 60be 855c 47be 19d6 913e 8573 613a
00000110: ad3e 973d b135 a0bd c236 c03e 8d69 9abd
00000120: 3b90 7f3e 5469 f2bc 7818 c4bc 0cde 43bf
00000130: a13f b4bd 765d 9ebe 8e71 2e3e 62a8 88be
00000140: 98b4 c33e 4228 b3bd d48c a0bd b96a 6b3e
00000150: acf9 1a3c 898d 173e 53f4 13be 90d1 b3be
00000160: 292b 903d 6fea dabe 9934 abbd 43ad 7c3e
00000170: 3ea6 4d3e 6c70 c73e 086e e1be c503 46be
00000180: 1f88 25bf fc36 08bf 0954 75be 41f9 a73d
00000190: eb85 c6be 9f11 863d 42b0 ac3e ea17 fe3d
000001a0: 37fe a2be c15d 963c fa68 4fbe ec0d 073e
000001b0: e34d 4abd b555 143e 133c 303e 8f30 b1be
000001c0: 34de 563e 9627 3c3e 40b2 503f 57ac f53c
000001d0: 632f b83d 2eda 8cbe 14b2 3fbe 72ec 07bc
000001e0: bf49 bc3d 5512 b4be e637 09bd cc4b babd
000001f0: 362e 1bbe 4c29 76be d532 743b c2af e43d
00000200: 8be2 73be 8873 3a3f 75c9 183e 0e14 70be
00000210: c68e 9f3e 5700 c33e 03bf 52bb 6468 ac3d
00000220: 2380 443e a790 983e 5db3 96be a36e 7f3c
00000230: 0483 acbe a340 093f 9bed c73c 31eb bdbe
00000240: 02af ebbd 4606 363e e11c 173b 41f5 2f3f
00000250: ccbc d93d a790 e2bc d1bf 81be aabe 65be
00000260: 435c afbd 25ff 74be 6fcf 6f3d a531 9dbe
00000270: 994a 74be 7b7e 10be ebc9 723e 33c3 84bb
00000280: d215 b3be 2bfd 5abe c4a3 b6be 75ae 6cbf
00000290: 58ea 2ebd 88dc 813e b534 3e3e 73d3 013e
000002a0: db91 913d d5a6 cbbe 02e3 da3d 5f5e afbe
000002b0: bfb4 073e 86db 943e af81 c7be 8efc b9be
000002c0: 938d b43a 6cbd c6bd a7a7 d1bd f9e2 263e
000002d0: 7bec 93bb ee11 eebd de03 a4bd 99d7 473f
000002e0: 7109 9ebd 7d68 513e fdd5 703e 4cb7 b2be
000002f0: a3ca 73bd 3368 20bd 1a7f 56be e569 fdbd
00000300: 10de 86be 9db6 a5be 0271 6dbe b6b3 8b3d
00000310: b1c6 5b3e ad7b ba3e 1c8f bcbd 5bce 1cbd
00000320: 5417 14be 483e e0be ed24 ab3c 3bc1 873e
00000330: bbf5 a4bd 676c d03e 5ecc 6cbe 03ea 713e
00000340: 800b 833d 047b b23d 6e5f 8bbd 3226 f5bd
00000350: 37d4 013f e5fe b0bd d878 373e 3b9c 113f
00000360: 1afe 293e 8969 95bd b113 c53e 550a 5b3e
00000370: 83a6 8bbd 473b 173c ab32 463e 2f51 a23e
00000380: 843c 45bb 07b0 16be e7ad 7cbe 59fb f93e
00000390: 4723 87be 7a4b e93e 79fd 003f 243f 15bc
000003a0: deb6 13be 74da 98be b47b a6be edef fcbe
000003b0: c147 2fbe 6996 82bd 32fa 8cbe 874e 93be
000003c0: fb71 3fbe b671 bc3d 8f97 6dbe 8bc0 23be
000003d0: bf6f 0d3d 39b6 bd3e 76b4 b2be c82a 2dbd
000003e0: 8a13 68be 8377 343e 75f2 16bf 774e ea3d
000003f0: f70b e93d f08e 09bf 452b 253d d3e5 91bd
0.23329814 0.17041974 0.35486346 -0.10122081 0.18966548 -0.36966693 0.27393845 0.06264996
-0.056184296 -0.019863779 -0.30709812 -0.48604316 0.15233186 0.0037791475 -0.3660092 -0.098359115
0.011379044 0.16104653 -0.02522082 -0.030195495 -0.00624585 -0.2659464 -0.15377198 0.15718937
-0.34000355 -1.1947774 -0.21797603 -0.38002464 -0.04103623 -0.061871547 -0.0527647 -0.11845153
0.26518324 0.30602294 -0.3380994 0.005485472 0.7005625 0.14044924 0.05428572 -0.06841791
-0.42528802 0.3267326 -0.21018034 -0.08205594 -0.08215421 0.21080373 -0.09392749 -0.06848641
0.48331904 -0.010770974 0.07863486 -0.88260543 -0.09352276 -0.38611355 0.011752525 -0.18974043
-0.63617134 -0.28319517 -0.20304929 0.08507586 0.1905858 -0.11396913 -0.5297621 -0.3937108
-0.21900418 -0.19468887 0.28483656 0.00086002826 0.07385001 -0.07822741 0.37541777 -0.075396635
0.24957363 -0.02959124 -0.023937449 -0.7651069 -0.08801199 -0.3093068 0.17035505 -0.26690966
0.3822372 -0.08747913 -0.07839361 0.2298993 0.0094589405 0.14800085 -0.14448671 -0.3512082
0.07039482 -0.42756984 -0.083596416 0.24675469 0.20082948 0.3895296 -0.4402926 -0.19337375
-0.6466083 -0.532089 -0.23957838 0.08201838 -0.38774046 0.0654633 0.33728224 0.12406905
-0.31834576 0.018355252 -0.20254889 0.13188905 -0.049390685 0.1448582 0.17210416 -0.3460736
0.20983201 0.18374476 0.8152199 0.029989405 0.08993413 -0.27510208 -0.18720275 -0.008296119
0.091937535 -0.35170236 -0.033500575 -0.09096488 -0.15154347 -0.24039191 0.0037261744 0.11166336
-0.23816888 0.72832537 0.149206 -0.2344515 0.31163615 0.38086197 -0.003215731 0.084183484
0.19189505 0.2979786 -0.29433718 0.015590343 -0.33693707 0.5361425 0.024405291 -0.370935
-0.115079895 0.1777583 0.0023057985 0.687336 0.10631713 -0.027656866 -0.25341657 -0.22436014
-0.085625194 -0.23925455 0.058547433 -0.30701938 -0.23856582 -0.14110748 0.23709838 -0.00405159
-0.34977585 -0.21385638 -0.35671818 -0.924537 -0.042703956 0.25363564 0.18574794 0.12678318
0.07107898 -0.3977572 0.106878296 -0.34251687 0.13252543 0.29073733 -0.38966128 -0.36325496
0.0013775103 -0.09704098 -0.10237055 0.1629752 -0.0045142747 -0.116245136 -0.0800855 0.7806335
-0.077166446 0.20450015 0.2351913 -0.3490547 -0.05951942 -0.039161872 -0.20946923 -0.123737134
-0.26341295 -0.32365885 -0.2318764 0.068213865 0.21462514 0.36422482 -0.092069834 -0.038282733
-0.14462024 -0.43797517 0.020891631 0.2651461 -0.08054682 0.40707704 -0.23124835 0.23624425
0.06398678 0.087148696 -0.06805311 -0.11970176 0.5071444 -0.08642367 0.17917192 0.56879014
0.16600838 -0.0729552 0.38491586 0.2139066 -0.06818869 0.009230441 0.19355266 0.31702563
-0.0030095885 -0.14715587 -0.24675713 0.48824576 -0.26394102 0.45565397 0.5038677 -0.009109292
-0.14425227 -0.29854167 -0.32516253 -0.494018 -0.17117216 -0.06376345 -0.27534634 -0.2877085
-0.18695824 0.09201376 -0.23202346 -0.15991418 0.034530398 0.37053087 -0.34903306 -0.042277128
-0.22663704 0.17623715 -0.5896371 0.11440747 0.11379235 -0.5373373 0.04032447 -0.071239136
